Model: "sequential"
_________________________________________________________________
Layer (type)                 Output Shape              Param #   
=================================================================
prune_low_magnitude_lstm (Pr (None, 3, 300)            766803    
_________________________________________________________________
prune_low_magnitude_dropout  (None, 3, 300)            1         
_________________________________________________________________
prune_low_magnitude_lstm_1 ( (None, 3, 150)            540603    
_________________________________________________________________
prune_low_magnitude_lstm_2 ( (None, 75)                135303    
_________________________________________________________________
prune_low_magnitude_dropout_ (None, 75)                1         
_________________________________________________________________
prune_low_magnitude_dense (P (None, 10)                1512      
=================================================================
Total params: 1,444,223
Trainable params: 723,160
Non-trainable params: 721,063
_________________________________________________________________
Epoch 1/6

    1/11445 [..............................] - ETA: 40:37:08 - loss: 2.3026 - accuracy: 0.0000e+00
    2/11445 [..............................] - ETA: 14:39:01 - loss: 2.3022 - accuracy: 0.0000e+00
…
