Model: "sequential"
_________________________________________________________________
Layer (type)                 Output Shape              Param #   
=================================================================
prune_low_magnitude_lstm (Pr (None, 2, 200)            333603    
_________________________________________________________________
prune_low_magnitude_dropout  (None, 2, 200)            1         
_________________________________________________________________
prune_low_magnitude_lstm_1 ( (None, 2, 100)            240403    
_________________________________________________________________
prune_low_magnitude_lstm_2 ( (None, 75)                105303    
_________________________________________________________________
prune_low_magnitude_dropout_ (None, 75)                1         
_________________________________________________________________
prune_low_magnitude_dense (P (None, 8)                 1210      
=================================================================
Total params: 680,521
Trainable params: 341,008
Non-trainable params: 339,513
_________________________________________________________________
Epoch 1/4

    1/13271 [..............................] - ETA: 41:24:53 - loss: 2.0820 - accuracy: 0.2656
    2/13271 [..............................] - ETA: 16:17:16 - loss: 2.0814 - accuracy: 0.2852
…
